…
    "model.compile(loss='binary_crossentropy',\n",
    "              optimizer='adam',\n",
    "              metrics=['accuracy'])\n",
    "predictions = []\n",
    "    "
   ]
  },
  {
   "cell_type": "code",
   "execution_count": 3,
   "metadata": {},
   "outputs": [
    {
     "name": "stdout",
     "output_type": "stream",
     "text": [
      "_________________________________________________________________\n",
      "Layer (type)                 Output Shape              Param #   \n",
      "=================================================================\n",
      "conv2d_19 (Conv2D)           (None, 124, 124, 4)       104       \n",
      "_________________________________________________________________\n",
      "activation_28 (Activation)   (None, 124, 124, 4)       0         \n",
      "_________________________________________________________________\n",
      "max_pooling2d_19 (MaxPooling (None, 17, 17, 4)         0         \n",
      "_________________________________________________________________\n",
      "conv2d_20 (Conv2D)           (None, 13, 13, 2)         202       \n",
      "_________________________________________________________________\n",
      "activation_29 (Activation)   (None, 13, 13, 2)         0         \n",
      "_________________________________________________________________\n",
      "max_pooling2d_20 (MaxPooling (None, 2, 2, 2)           0         \n",
      "_________________________________________________________________\n",
      "flatten_10 (Flatten)         (None, 8)                 0         \n",
      "_________________________________________________________________\n",
      "dense_10 (Dense)             (None, 2)                 18        \n",
      "_________________________________________________________________\n",
      "activation_30 (Activation)   (None, 2)                 0         \n",
      "=================================================================\n",
      "Total params: 324\n",
      "Trainable params: 324\n",
      "Non-trainable params: 0\n",
      "_________________________________________________________________\n"
     ]
    }
   ],
   "source": [
    "model.summary()"
   ]
  },
  {
   "cell_type": "code",
   "execution_count": 3,
   "metadata": {},
…
